nohup: ignoring input
----------------------------------------------------------------
        Layer (type)               Output Shape         Param #
================================================================
            Conv2d-1        [128, 64, 112, 112]           9,472
              ReLU-2        [128, 64, 112, 112]               0
         MaxPool2d-3          [128, 64, 56, 56]               0
 LocalResponseNorm-4          [128, 64, 56, 56]               0
            Conv2d-5          [128, 64, 56, 56]           4,160
              ReLU-6          [128, 64, 56, 56]               0
            Conv2d-7         [128, 192, 56, 56]         110,784
              ReLU-8         [128, 192, 56, 56]               0
 LocalResponseNorm-9         [128, 192, 56, 56]               0
        MaxPool2d-10         [128, 192, 28, 28]               0
           Conv2d-11          [128, 64, 28, 28]          12,352
             ReLU-12          [128, 64, 28, 28]               0
           Conv2d-13          [128, 96, 28, 28]          18,528
             ReLU-14          [128, 96, 28, 28]               0
           Conv2d-15         [128, 128, 28, 28]         110,720
             ReLU-16         [128, 128, 28, 28]               0
           Conv2d-17          [128, 16, 28, 28]           3,088
             ReLU-18          [128, 16, 28, 28]               0
           Conv2d-19          [128, 32, 28, 28]          12,832
             ReLU-20          [128, 32, 28, 28]               0
        MaxPool2d-21         [128, 192, 28, 28]               0
           Conv2d-22          [128, 32, 28, 28]           6,176
             ReLU-23          [128, 32, 28, 28]               0
        Inception-24         [128, 256, 28, 28]               0
           Conv2d-25         [128, 128, 28, 28]          32,896
             ReLU-26         [128, 128, 28, 28]               0
           Conv2d-27         [128, 128, 28, 28]          32,896
             ReLU-28         [128, 128, 28, 28]               0
           Conv2d-29         [128, 192, 28, 28]         221,376
             ReLU-30         [128, 192, 28, 28]               0
           Conv2d-31          [128, 32, 28, 28]           8,224
             ReLU-32          [128, 32, 28, 28]               0
           Conv2d-33          [128, 96, 28, 28]          76,896
             ReLU-34          [128, 96, 28, 28]               0
        MaxPool2d-35         [128, 256, 28, 28]               0
           Conv2d-36          [128, 64, 28, 28]          16,448
             ReLU-37          [128, 64, 28, 28]               0
        Inception-38         [128, 480, 28, 28]               0
        MaxPool2d-39         [128, 480, 14, 14]               0
           Conv2d-40         [128, 192, 14, 14]          92,352
             ReLU-41         [128, 192, 14, 14]               0
           Conv2d-42          [128, 96, 14, 14]          46,176
             ReLU-43          [128, 96, 14, 14]               0
           Conv2d-44         [128, 208, 14, 14]         179,920
             ReLU-45         [128, 208, 14, 14]               0
           Conv2d-46          [128, 16, 14, 14]           7,696
             ReLU-47          [128, 16, 14, 14]               0
           Conv2d-48          [128, 48, 14, 14]          19,248
             ReLU-49          [128, 48, 14, 14]               0
        MaxPool2d-50         [128, 480, 14, 14]               0
           Conv2d-51          [128, 64, 14, 14]          30,784
             ReLU-52          [128, 64, 14, 14]               0
        Inception-53         [128, 512, 14, 14]               0
        AvgPool2d-54           [128, 512, 4, 4]               0
           Conv2d-55           [128, 128, 4, 4]          65,664
             ReLU-56           [128, 128, 4, 4]               0
           Linear-57                [128, 1024]       2,098,176
             ReLU-58                [128, 1024]               0
          Dropout-59                [128, 1024]               0
           Linear-60                  [128, 10]          10,250
    AuxClassifier-61                  [128, 10]               0
           Conv2d-62         [128, 160, 14, 14]          82,080
             ReLU-63         [128, 160, 14, 14]               0
           Conv2d-64         [128, 112, 14, 14]          57,456
             ReLU-65         [128, 112, 14, 14]               0
           Conv2d-66         [128, 224, 14, 14]         226,016
             ReLU-67         [128, 224, 14, 14]               0
           Conv2d-68          [128, 24, 14, 14]          12,312
             ReLU-69          [128, 24, 14, 14]               0
           Conv2d-70          [128, 64, 14, 14]          38,464
             ReLU-71          [128, 64, 14, 14]               0
        MaxPool2d-72         [128, 512, 14, 14]               0
           Conv2d-73          [128, 64, 14, 14]          32,832
             ReLU-74          [128, 64, 14, 14]               0
        Inception-75         [128, 512, 14, 14]               0
           Conv2d-76         [128, 128, 14, 14]          65,664
             ReLU-77         [128, 128, 14, 14]               0
           Conv2d-78         [128, 128, 14, 14]          65,664
             ReLU-79         [128, 128, 14, 14]               0
           Conv2d-80         [128, 256, 14, 14]         295,168
             ReLU-81         [128, 256, 14, 14]               0
           Conv2d-82          [128, 24, 14, 14]          12,312
             ReLU-83          [128, 24, 14, 14]               0
           Conv2d-84          [128, 64, 14, 14]          38,464
             ReLU-85          [128, 64, 14, 14]               0
        MaxPool2d-86         [128, 512, 14, 14]               0
           Conv2d-87          [128, 64, 14, 14]          32,832
             ReLU-88          [128, 64, 14, 14]               0
        Inception-89         [128, 512, 14, 14]               0
           Conv2d-90         [128, 112, 14, 14]          57,456
             ReLU-91         [128, 112, 14, 14]               0
           Conv2d-92         [128, 144, 14, 14]          73,872
             ReLU-93         [128, 144, 14, 14]               0
           Conv2d-94         [128, 288, 14, 14]         373,536
             ReLU-95         [128, 288, 14, 14]               0
           Conv2d-96          [128, 32, 14, 14]          16,416
             ReLU-97          [128, 32, 14, 14]               0
           Conv2d-98          [128, 64, 14, 14]          51,264
             ReLU-99          [128, 64, 14, 14]               0
       MaxPool2d-100         [128, 512, 14, 14]               0
          Conv2d-101          [128, 64, 14, 14]          32,832
            ReLU-102          [128, 64, 14, 14]               0
       Inception-103         [128, 528, 14, 14]               0
       AvgPool2d-104           [128, 528, 4, 4]               0
          Conv2d-105           [128, 128, 4, 4]          67,712
            ReLU-106           [128, 128, 4, 4]               0
          Linear-107                [128, 1024]       2,098,176
            ReLU-108                [128, 1024]               0
         Dropout-109                [128, 1024]               0
          Linear-110                  [128, 10]          10,250
   AuxClassifier-111                  [128, 10]               0
          Conv2d-112         [128, 256, 14, 14]         135,424
            ReLU-113         [128, 256, 14, 14]               0
          Conv2d-114         [128, 160, 14, 14]          84,640
            ReLU-115         [128, 160, 14, 14]               0
          Conv2d-116         [128, 320, 14, 14]         461,120
            ReLU-117         [128, 320, 14, 14]               0
          Conv2d-118          [128, 32, 14, 14]          16,928
            ReLU-119          [128, 32, 14, 14]               0
          Conv2d-120         [128, 128, 14, 14]         102,528
            ReLU-121         [128, 128, 14, 14]               0
       MaxPool2d-122         [128, 528, 14, 14]               0
          Conv2d-123         [128, 128, 14, 14]          67,712
            ReLU-124         [128, 128, 14, 14]               0
       Inception-125         [128, 832, 14, 14]               0
       MaxPool2d-126           [128, 832, 7, 7]               0
          Conv2d-127           [128, 256, 7, 7]         213,248
            ReLU-128           [128, 256, 7, 7]               0
          Conv2d-129           [128, 160, 7, 7]         133,280
            ReLU-130           [128, 160, 7, 7]               0
          Conv2d-131           [128, 320, 7, 7]         461,120
            ReLU-132           [128, 320, 7, 7]               0
          Conv2d-133            [128, 32, 7, 7]          26,656
            ReLU-134            [128, 32, 7, 7]               0
          Conv2d-135           [128, 128, 7, 7]         102,528
            ReLU-136           [128, 128, 7, 7]               0
       MaxPool2d-137           [128, 832, 7, 7]               0
          Conv2d-138           [128, 128, 7, 7]         106,624
            ReLU-139           [128, 128, 7, 7]               0
       Inception-140           [128, 832, 7, 7]               0
          Conv2d-141           [128, 384, 7, 7]         319,872
            ReLU-142           [128, 384, 7, 7]               0
          Conv2d-143           [128, 192, 7, 7]         159,936
            ReLU-144           [128, 192, 7, 7]               0
          Conv2d-145           [128, 384, 7, 7]         663,936
            ReLU-146           [128, 384, 7, 7]               0
          Conv2d-147            [128, 48, 7, 7]          39,984
            ReLU-148            [128, 48, 7, 7]               0
          Conv2d-149           [128, 128, 7, 7]         153,728
            ReLU-150           [128, 128, 7, 7]               0
       MaxPool2d-151           [128, 832, 7, 7]               0
          Conv2d-152           [128, 128, 7, 7]         106,624
            ReLU-153           [128, 128, 7, 7]               0
       Inception-154          [128, 1024, 7, 7]               0
       AvgPool2d-155          [128, 1024, 1, 1]               0
         Dropout-156                [128, 1024]               0
          Linear-157                  [128, 10]          10,250
================================================================
Total params: 10,334,030
Trainable params: 10,334,030
Non-trainable params: 0
----------------------------------------------------------------
Input size (MB): 73.50
Forward/backward pass size (MB): 9708.27
Params size (MB): 39.42
Estimated Total Size (MB): 9821.19
----------------------------------------------------------------
Epoch : 1/100
…
