----------------------------------------------------------------
        Layer (type)               Output Shape         Param #
================================================================
            Conv2d-1        [256, 64, 112, 112]           9,408
       BatchNorm2d-2        [256, 64, 112, 112]             128
              ReLU-3        [256, 64, 112, 112]               0
         MaxPool2d-4          [256, 64, 56, 56]               0
            Conv2d-5          [256, 64, 56, 56]          36,864
       BatchNorm2d-6          [256, 64, 56, 56]             128
              ReLU-7          [256, 64, 56, 56]               0
            Conv2d-8          [256, 64, 56, 56]          36,864
       BatchNorm2d-9          [256, 64, 56, 56]             128
             ReLU-10          [256, 64, 56, 56]               0
       BasicBlock-11          [256, 64, 56, 56]               0
           Conv2d-12          [256, 64, 56, 56]          36,864
      BatchNorm2d-13          [256, 64, 56, 56]             128
             ReLU-14          [256, 64, 56, 56]               0
           Conv2d-15          [256, 64, 56, 56]          36,864
      BatchNorm2d-16          [256, 64, 56, 56]             128
             ReLU-17          [256, 64, 56, 56]               0
       BasicBlock-18          [256, 64, 56, 56]               0
           Conv2d-19         [256, 128, 28, 28]          73,728
      BatchNorm2d-20         [256, 128, 28, 28]             256
             ReLU-21         [256, 128, 28, 28]               0
           Conv2d-22         [256, 128, 28, 28]         147,456
      BatchNorm2d-23         [256, 128, 28, 28]             256
           Conv2d-24         [256, 128, 28, 28]           8,192
      BatchNorm2d-25         [256, 128, 28, 28]             256
             ReLU-26         [256, 128, 28, 28]               0
       BasicBlock-27         [256, 128, 28, 28]               0
           Conv2d-28         [256, 128, 28, 28]         147,456
      BatchNorm2d-29         [256, 128, 28, 28]             256
             ReLU-30         [256, 128, 28, 28]               0
           Conv2d-31         [256, 128, 28, 28]         147,456
      BatchNorm2d-32         [256, 128, 28, 28]             256
             ReLU-33         [256, 128, 28, 28]               0
       BasicBlock-34         [256, 128, 28, 28]               0
           Conv2d-35         [256, 256, 14, 14]         294,912
      BatchNorm2d-36         [256, 256, 14, 14]             512
             ReLU-37         [256, 256, 14, 14]               0
           Conv2d-38         [256, 256, 14, 14]         589,824
      BatchNorm2d-39         [256, 256, 14, 14]             512
           Conv2d-40         [256, 256, 14, 14]          32,768
      BatchNorm2d-41         [256, 256, 14, 14]             512
             ReLU-42         [256, 256, 14, 14]               0
       BasicBlock-43         [256, 256, 14, 14]               0
           Conv2d-44         [256, 256, 14, 14]         589,824
      BatchNorm2d-45         [256, 256, 14, 14]             512
             ReLU-46         [256, 256, 14, 14]               0
           Conv2d-47         [256, 256, 14, 14]         589,824
      BatchNorm2d-48         [256, 256, 14, 14]             512
             ReLU-49         [256, 256, 14, 14]               0
       BasicBlock-50         [256, 256, 14, 14]               0
           Conv2d-51           [256, 512, 7, 7]       1,179,648
      BatchNorm2d-52           [256, 512, 7, 7]           1,024
             ReLU-53           [256, 512, 7, 7]               0
           Conv2d-54           [256, 512, 7, 7]       2,359,296
      BatchNorm2d-55           [256, 512, 7, 7]           1,024
           Conv2d-56           [256, 512, 7, 7]         131,072
      BatchNorm2d-57           [256, 512, 7, 7]           1,024
             ReLU-58           [256, 512, 7, 7]               0
       BasicBlock-59           [256, 512, 7, 7]               0
           Conv2d-60           [256, 512, 7, 7]       2,359,296
      BatchNorm2d-61           [256, 512, 7, 7]           1,024
             ReLU-62           [256, 512, 7, 7]               0
           Conv2d-63           [256, 512, 7, 7]       2,359,296
      BatchNorm2d-64           [256, 512, 7, 7]           1,024
             ReLU-65           [256, 512, 7, 7]               0
       BasicBlock-66           [256, 512, 7, 7]               0
AdaptiveAvgPool2d-67           [256, 512, 1, 1]               0
           Linear-68                  [256, 10]           5,130
================================================================
Total params: 11,181,642
Trainable params: 11,181,642
Non-trainable params: 0
----------------------------------------------------------------
Input size (MB): 147.00
Forward/backward pass size (MB): 16073.02
Params size (MB): 42.65
Estimated Total Size (MB): 16262.67
----------------------------------------------------------------
Epoch 1/100, current lr = 0.001
…
