nohup: ignoring input
----------------------------------------------------------------
        Layer (type)               Output Shape         Param #
================================================================
            Conv2d-1           [32, 64, 32, 32]           1,728
       BatchNorm2d-2           [32, 64, 32, 32]             128
              ReLU-3           [32, 64, 32, 32]               0
         MaxPool2d-4           [32, 64, 16, 16]               0
            Conv2d-5           [32, 64, 16, 16]          36,864
       BatchNorm2d-6           [32, 64, 16, 16]             128
              ReLU-7           [32, 64, 16, 16]               0
            Conv2d-8           [32, 64, 16, 16]          36,864
       BatchNorm2d-9           [32, 64, 16, 16]             128
             ReLU-10           [32, 64, 16, 16]               0
       BasicBlock-11           [32, 64, 16, 16]               0
           Conv2d-12           [32, 64, 16, 16]          36,864
      BatchNorm2d-13           [32, 64, 16, 16]             128
             ReLU-14           [32, 64, 16, 16]               0
           Conv2d-15           [32, 64, 16, 16]          36,864
      BatchNorm2d-16           [32, 64, 16, 16]             128
             ReLU-17           [32, 64, 16, 16]               0
       BasicBlock-18           [32, 64, 16, 16]               0
           Conv2d-19           [32, 64, 16, 16]          36,864
      BatchNorm2d-20           [32, 64, 16, 16]             128
             ReLU-21           [32, 64, 16, 16]               0
           Conv2d-22           [32, 64, 16, 16]          36,864
      BatchNorm2d-23           [32, 64, 16, 16]             128
             ReLU-24           [32, 64, 16, 16]               0
       BasicBlock-25           [32, 64, 16, 16]               0
           Conv2d-26            [32, 128, 8, 8]          73,728
      BatchNorm2d-27            [32, 128, 8, 8]             256
             ReLU-28            [32, 128, 8, 8]               0
           Conv2d-29            [32, 128, 8, 8]         147,456
      BatchNorm2d-30            [32, 128, 8, 8]             256
           Conv2d-31            [32, 128, 8, 8]           8,192
      BatchNorm2d-32            [32, 128, 8, 8]             256
             ReLU-33            [32, 128, 8, 8]               0
       BasicBlock-34            [32, 128, 8, 8]               0
           Conv2d-35            [32, 128, 8, 8]         147,456
      BatchNorm2d-36            [32, 128, 8, 8]             256
             ReLU-37            [32, 128, 8, 8]               0
           Conv2d-38            [32, 128, 8, 8]         147,456
      BatchNorm2d-39            [32, 128, 8, 8]             256
             ReLU-40            [32, 128, 8, 8]               0
       BasicBlock-41            [32, 128, 8, 8]               0
           Conv2d-42            [32, 128, 8, 8]         147,456
      BatchNorm2d-43            [32, 128, 8, 8]             256
             ReLU-44            [32, 128, 8, 8]               0
           Conv2d-45            [32, 128, 8, 8]         147,456
      BatchNorm2d-46            [32, 128, 8, 8]             256
             ReLU-47            [32, 128, 8, 8]               0
       BasicBlock-48            [32, 128, 8, 8]               0
           Conv2d-49            [32, 128, 8, 8]         147,456
      BatchNorm2d-50            [32, 128, 8, 8]             256
             ReLU-51            [32, 128, 8, 8]               0
           Conv2d-52            [32, 128, 8, 8]         147,456
      BatchNorm2d-53            [32, 128, 8, 8]             256
             ReLU-54            [32, 128, 8, 8]               0
       BasicBlock-55            [32, 128, 8, 8]               0
           Conv2d-56            [32, 256, 4, 4]         294,912
      BatchNorm2d-57            [32, 256, 4, 4]             512
             ReLU-58            [32, 256, 4, 4]               0
           Conv2d-59            [32, 256, 4, 4]         589,824
      BatchNorm2d-60            [32, 256, 4, 4]             512
           Conv2d-61            [32, 256, 4, 4]          32,768
      BatchNorm2d-62            [32, 256, 4, 4]             512
             ReLU-63            [32, 256, 4, 4]               0
       BasicBlock-64            [32, 256, 4, 4]               0
           Conv2d-65            [32, 256, 4, 4]         589,824
      BatchNorm2d-66            [32, 256, 4, 4]             512
             ReLU-67            [32, 256, 4, 4]               0
           Conv2d-68            [32, 256, 4, 4]         589,824
      BatchNorm2d-69            [32, 256, 4, 4]             512
             ReLU-70            [32, 256, 4, 4]               0
       BasicBlock-71            [32, 256, 4, 4]               0
           Conv2d-72            [32, 256, 4, 4]         589,824
      BatchNorm2d-73            [32, 256, 4, 4]             512
             ReLU-74            [32, 256, 4, 4]               0
           Conv2d-75            [32, 256, 4, 4]         589,824
      BatchNorm2d-76            [32, 256, 4, 4]             512
             ReLU-77            [32, 256, 4, 4]               0
       BasicBlock-78            [32, 256, 4, 4]               0
           Conv2d-79            [32, 256, 4, 4]         589,824
      BatchNorm2d-80            [32, 256, 4, 4]             512
             ReLU-81            [32, 256, 4, 4]               0
           Conv2d-82            [32, 256, 4, 4]         589,824
      BatchNorm2d-83            [32, 256, 4, 4]             512
             ReLU-84            [32, 256, 4, 4]               0
       BasicBlock-85            [32, 256, 4, 4]               0
           Conv2d-86            [32, 256, 4, 4]         589,824
      BatchNorm2d-87            [32, 256, 4, 4]             512
             ReLU-88            [32, 256, 4, 4]               0
           Conv2d-89            [32, 256, 4, 4]         589,824
      BatchNorm2d-90            [32, 256, 4, 4]             512
             ReLU-91            [32, 256, 4, 4]               0
       BasicBlock-92            [32, 256, 4, 4]               0
           Conv2d-93            [32, 256, 4, 4]         589,824
      BatchNorm2d-94            [32, 256, 4, 4]             512
             ReLU-95            [32, 256, 4, 4]               0
           Conv2d-96            [32, 256, 4, 4]         589,824
      BatchNorm2d-97            [32, 256, 4, 4]             512
             ReLU-98            [32, 256, 4, 4]               0
       BasicBlock-99            [32, 256, 4, 4]               0
          Conv2d-100            [32, 512, 2, 2]       1,179,648
     BatchNorm2d-101            [32, 512, 2, 2]           1,024
            ReLU-102            [32, 512, 2, 2]               0
          Conv2d-103            [32, 512, 2, 2]       2,359,296
     BatchNorm2d-104            [32, 512, 2, 2]           1,024
          Conv2d-105            [32, 512, 2, 2]         131,072
     BatchNorm2d-106            [32, 512, 2, 2]           1,024
            ReLU-107            [32, 512, 2, 2]               0
      BasicBlock-108            [32, 512, 2, 2]               0
          Conv2d-109            [32, 512, 2, 2]       2,359,296
     BatchNorm2d-110            [32, 512, 2, 2]           1,024
            ReLU-111            [32, 512, 2, 2]               0
          Conv2d-112            [32, 512, 2, 2]       2,359,296
     BatchNorm2d-113            [32, 512, 2, 2]           1,024
            ReLU-114            [32, 512, 2, 2]               0
      BasicBlock-115            [32, 512, 2, 2]               0
          Conv2d-116            [32, 512, 2, 2]       2,359,296
     BatchNorm2d-117            [32, 512, 2, 2]           1,024
            ReLU-118            [32, 512, 2, 2]               0
          Conv2d-119            [32, 512, 2, 2]       2,359,296
     BatchNorm2d-120            [32, 512, 2, 2]           1,024
            ReLU-121            [32, 512, 2, 2]               0
      BasicBlock-122            [32, 512, 2, 2]               0
AdaptiveAvgPool2d-123            [32, 512, 1, 1]               0
          Linear-124                   [32, 10]           5,130
================================================================
Total params: 21,282,122
Trainable params: 21,282,122
Non-trainable params: 0
----------------------------------------------------------------
Input size (MB): 0.38
Forward/backward pass size (MB): 251.63
Params size (MB): 81.18
Estimated Total Size (MB): 333.19
----------------------------------------------------------------
Epoch 1/100, current lr = 0.001
…
